====================================================================================================
Model log:

CommNetMLP(
  (net): Sequential(
    (0): Conv2d(32, 3, kernel_size=(3, 3), stride=(2, 2))
    (1): ReLU()
    (2): AvgPool2d(kernel_size=2, stride=2, padding=0)
    (3): Conv2d(3, 6, kernel_size=(3, 3), stride=(1, 1))
    (4): ReLU()
    (5): AvgPool2d(kernel_size=2, stride=2, padding=0)
    (6): Conv2d(6, 6, kernel_size=(3, 3), stride=(1, 1))
    (7): ReLU()
    (8): Flatten()
  )
  (heads): ModuleList(
    (0): Linear(in_features=16, out_features=6, bias=True)
  )
  (encoder): Linear(in_features=294, out_features=128, bias=True)
  (encoder_2): Linear(in_features=128, out_features=15, bias=True)
  (encoder_battery): Linear(in_features=1, out_features=1, bias=True)
  (hidd_encoder): Linear(in_features=128, out_features=128, bias=True)
  (f_module): LSTMCell(16, 16)
  (C_modules): ModuleList(
    (0): Linear(in_features=16, out_features=16, bias=True)
  )
  (tanh): Tanh()
  (value_head): Linear(in_features=16, out_features=1, bias=True)
)
====================================================================================================

Test mode is executed! 

Selected model is  ./model/model_train_1.pt
Episode: 1 Map coverage: 9.369
Episode: 2 Map coverage: 11.66
Episode: 3 Map coverage: 11.88
Episode: 4 Map coverage: 9.801
Episode: 5 Map coverage: 16.67
Episode: 6 Map coverage: 16.78
…
