…
o=0, model='Train', naction_heads=[6, 2], nactions='1', nagents=5, nfriendly=5, normalize_rewards=False, nprocesses=1, num_actions=[6, 2], num_epochs=20000, num_inputs=12, plot=False, plot_env='main', random=False, recurrent=True, rnn_type='LSTM', save='/okyanus/users/deepdrone/DroneSwarm_MotionPlanning/weight/', save_every=100, scenario='planning', seed=5036, share_weights=False, tau=1.0, test=False, value_coeff=0.01)
Policy Net: CommNetMLP
====================================================================================================
Model log:

CommNetMLP(
  (heads): ModuleList(
    (0): Linear(in_features=36, out_features=6, bias=True)
    (1): Linear(in_features=36, out_features=2, bias=True)
  )
  (encoder): Linear(in_features=294, out_features=128, bias=True)
  (encoder_2): Linear(in_features=128, out_features=20, bias=True)
  (encoder_battery): Linear(in_features=1, out_features=1, bias=True)
  (hidd_encoder): Linear(in_features=128, out_features=128, bias=True)
  (f_module): LSTMCell(36, 36)
  (C_modules): ModuleList(
    (0): Linear(in_features=36, out_features=36, bias=True)
  )
  (tanh): Tanh()
  (value_head): Linear(in_features=36, out_features=1, bias=True)
  (net): Sequential(
    (0): Conv2d(1, 3, kernel_size=(3, 3), stride=(2, 2))
    (1): ReLU()
    (2): AvgPool2d(kernel_size=2, stride=2, padding=0)
    (3): Conv2d(3, 6, kernel_size=(3, 3), stride=(1, 1))
    (4): ReLU()
    (5): AvgPool2d(kernel_size=2, stride=2, padding=0)
    (6): Conv2d(6, 6, kernel_size=(3, 3), stride=(1, 1))
    (7): ReLU()
    (8): Flatten()
  )
  (net1d): Conv1d(16, 16, kernel_size=(1,), stride=(1,))
)
====================================================================================================

TRAIN MODE
Epoch 1	Reward [-303.61    7.11  104.49  270.87  258.27]	Time 218.71s
Steps-taken: 400.00
Comm-Action: [0.47 0.47 0.47 0.47 0.47]
Epoch 2	Reward [ 31.26  58.57  35.97  84.1  210.17]	Time 221.82s
Steps-taken: 400.00
Comm-Action: [0.36 0.38 0.37 0.38 0.36]
…
